MNIST/model.pth (torch, 221906 bytes, 12 tensors)

weight f4 [16, 2]
0	0xbeb35e15	-0.35032716
1	0x3f2b4d83	0.6691515
2	0x3efd086d	0.4942049
3	0xbea8aedf	-0.32945916
4	0xbeacf293	-0.3377882
5	0x3f098d7a	0.537315
6	0x3f304cfa	0.68867457
7	0x3eb4a122	0.35279185
8	0xbe7e0820	-0.24807787
9	0x3e7f4b78	0.24931133
10	0x3efa18ee	0.48847145
11	0xbe35a734	-0.17739564
12	0x3aa09467	0.0012251259
13	0x3eeb4aa6	0.4595539
14	0x3ec21423	0.37905988
15	0x3f238964	0.63881516
16	0xbf271c65	-0.652777
17	0xbeafe65f	-0.34355447
18	0xbedcb088	-0.43103433
19	0xbe08ee63	-0.13372187
20	0xbed91331	-0.42397454
21	0xbef5b20e	-0.47987407
22	0x3f080775	0.5313638
23	0x3ee119ba	0.4396494
24	0xbf242c81	-0.6413041
25	0x3f078ae7	0.52946323
26	0x3e995fb5	0.2995583
27	0x3e87b982	0.2650872
28	0xbf273b62	-0.65324986
29	0xbf105212	-0.5637523
30	0x3eb78ce9	0.35849693
31	0x3eb336ff	0.35002896

bias f4 [16]
0	0x3e14b770	0.14523101
1	0x3f2962d7	0.6616644
2	0xbecc2d76	-0.39878434
3	0xbf3dbd29	-0.7411676
4	0xbf11186e	-0.566779
5	0xbf0713aa	-0.5276438
6	0x3c731027	0.014835394
7	0x3e7a3754	0.24435169
8	0xbedd6ff7	-0.43249485
9	0x3f12df0a	0.5737158
10	0xbf0e7e73	-0.55661696
11	0xbef806bf	-0.48442647
12	0xbe91a5e0	-0.28446865
13	0x3f16a960	0.58852196
14	0x3f32f653	0.6990711
15	0xbf28bf26	-0.6591667

weight f4 [128, 16]
0	0xbe81bb65	-0.25338283
1	0x3e820427	0.25393793
2	0xbf0c7f96	-0.5488218
3	0x3b066c90	0.0020511486
4	0xbd0d9988	-0.034570247
5	0x3e9dc6ab	0.30815634
6	0x3d930bda	0.07179995
7	0xbe0d43d6	-0.13795409
8	0x3d6b51d8	0.0574511
9	0xbf62efe2	-0.8864728
10	0xbe101780	-0.14071465
11	0x3e80000b	0.25000033
12	0xbd7bed45	-0.061505575
13	0xb94b2f58	-0.00019377226
14	0xbddafce1	-0.10692764
15	0x3e9edce7	0.3102791
16	0x3e99056d	0.29886952
17	0xbddd9fe2	-0.10821511
18	0xbd3ba1e6	-0.045808695
19	0xbea02033	-0.31274566
20	0x3ccf0250	0.025269657
21	0xbe5ea205	-0.21741493
22	0x3e91fe69	0.28514412
23	0x3e5d3d32	0.21605375
24	0x3dcd5bb4	0.100272566
25	0xbe94d91d	-0.29071894
26	0xbddae758	-0.106886566
27	0xbd5b1a68	-0.05349198
28	0xbe9763e8	-0.2956841
29	0x3e19cad1	0.15018775
30	0xbdc9747d	-0.098366715
31	0xbe996e3a	-0.2996691
32	0x3e36f1b6	0.17865643
33	0xbe2fbeb0	-0.17162585
34	0x3e5019b4	0.20322305
35	0xbe1e6f2c	-0.15472096
36	0x3d82bf64	0.06384161
37	0xbddebdcc	-0.10876045
38	0xbd0b3250	-0.03398353
39	0xbe24dc96	-0.16099772
40	0x3d4e7698	0.05040607
41	0xbe3e0544	-0.18556696
42	0x3d4eb450	0.05046493
43	0xbe29110e	-0.16510412
44	0xbe2aded6	-0.16686568
45	0xbe2e0dec	-0.16997498
46	0xbd302128	-0.04300037
47	0xbe0e8458	-0.13917673
48	0xbe22bdde	-0.15892741
49	0x3e08ea54	0.13370639
50	0xbe5d97e7	-0.21639977
51	0xbd029a9a	-0.03188572
52	0xbd9bb314	-0.07602516
53	0x3e096997	0.13419186
54	0xbe104a0b	-0.14090745
55	0xbe19a013	-0.1500247
56	0xbcba33e0	-0.022729814
57	0xbd16c24d	-0.036806393
58	0xbde08c2c	-0.10964236
59	0xbe4c2ba6	-0.19938526
60	0xbe1eea3e	-0.15519044
61	0x3e41f16c	0.18939751
62	0x3e9dd857	0.30829117
63	0xbca23b5d	-0.019803697
64	0x3dcc0f34	0.09963837
65	0xbe73fd00	-0.2382698
66	0xbdff81c0	-0.1247592
67	0xbdda3f7c	-0.1065664
68	0xbe1fb23a	-0.15595332
69	0x3c73a1a0	0.014870077
70	0x3c53e160	0.012932152
71	0xbe5efc28	-0.21775877
72	0x3e2fb622	0.17159322
73	0xbe1648e0	-0.14676237
74	0x3cdbf110	0.026848346
75	0xbe686a1a	-0.22696725
76	0xbd183498	-0.037159532
77	0xbda062d0	-0.07831347
78	0x3cafded0	0.02146855
79	0xbe0c0d04	-0.1367684
80	0x3ec4634c	0.38357008
81	0xbe64d1f0	-0.2234571
82	0x3b8e7629	0.004347582
83	0x3c38c8ef	0.011278375
84	0xbe318c10	-0.17338586
85	0xbd7329f2	-0.059366174
86	0x3d477df2	0.048704095
87	0x3d13c669	0.03607789
88	0x3e02c22a	0.1276938
89	0x3e00d1f9	0.12580098
90	0x3e3e7e00	0.18602753
91	0x3e87e725	0.26543537
92	0xbe722a8e	-0.23649046
93	0x3ca6d631	0.020365806
94	0xbf036d1e	-0.51338375
95	0x3e6e853d	0.23293014
96	0x3dccc024	0.099975854
97	0x3c04c7af	0.008104249
98	0x3e2a7abc	0.16648382
99	0x3db6fa2b	0.089344345
100	0xbe744fda	-0.23858586
101	0xbed83855	-0.42230478
102	0xbd8de7b2	-0.06928958
103	0xbe4c50fb	-0.19952767
104	0x3deb356c	0.11484799
105	0x3ea88c6f	0.32919642
106	0x3e36c75c	0.17849487
107	0xbe4c6b53	-0.19962816
108	0x3e521fe0	0.20519972
109	0x3e77b430	0.2418983
110	0x3e9cedc8	0.30650163
111	0x3e11a735	0.1422394
112	0x3e9fefef	0.31237742
113	0xbe117a45	-0.14206798
114	0x3c828125	0.015930722
115	0x3d0f3bbb	0.034969073
116	0xbe5965b6	-0.21230206
117	0xbdfdc39b	-0.123908244
118	0xbb5669b5	-0.0032716815
119	0x3d83059a	0.06397553
120	0x3e7213ca	0.23640361
121	0x3e26666a	0.16250005
122	0xbd4d7060	-0.050155997
123	0xbdfecf36	-0.12441866
124	0xbed5efe7	-0.41784593
125	0x3d6a61fd	0.057222355
126	0xbe79b132	-0.24384001
127	0x3bac9677	0.0052669602
128	0xbbbd045f	-0.0057683433
129	0x3b3dfe72	0.0028990773
130	0xbe84f4d5	-0.25968042
131	0x3cc94156	0.024567287
132	0xbdb46b94	-0.088095814
133	0xbf1c6c71	-0.6110297
134	0xbcb591ec	-0.022164308
135	0x3e10a6c7	0.1412612
136	0x3dd5cd70	0.10439575
137	0xbe154b06	-0.145794
138	0xbe54e0c0	-0.2078886
139	0x3cad3c61	0.021146955
140	0xbf00697a	-0.50160944
141	0x3d06838e	0.032840304
142	0x3e5ec65c	0.21755356
143	0xbe795c8c	-0.2435171
144	0x3e08c0c0	0.13354778
145	0xbd4b9231	-0.049699966
146	0xbd01b4f1	-0.0316667
147	0x3e6dfad9	0.23240222
148	0xbdfd4cd0	-0.123681664
149	0x3ef38e44	0.47569478
150	0x3c922c3e	0.017843362
151	0x3e2fea56	0.17179236
152	0x3e037008	0.12835705
153	0xbe954525	-0.29154316
154	0xbe032bba	-0.12809649
155	0x3e93a50b	0.28836855
156	0x3e03549c	0.12825245
157	0xbe7887df	-0.2427058
158	0xbe109dc4	-0.14122683
159	0x3db65801	0.08903504
160	0xbdfb0f24	-0.12258747
161	0x3d680c90	0.056652606
162	0xbdcdd5f8	-0.10050577
163	0xbdb415ec	-0.08793244
164	0xbe724df2	-0.23662546
165	0x3df42f64	0.119231015
166	0xbe01bf72	-0.12670687
167	0xbe587e1a	-0.21141854
168	0xbdafad5c	-0.085779876
169	0x3e486e98	0.19573438
170	0x3daa2ac8	0.08308941
171	0xbd5345a0	-0.05158007
172	0x3da0f85c	0.07859871
173	0xbd06b098	-0.032883257
174	0xbdf0ca40	-0.11757326
175	0xbc2c2400	-0.01050663
176	0x3cab3e00	0.020903587
177	0xbe3017ca	-0.17196575
178	0xbdb3ced4	-0.08779684
179	0x3e5b9ef6	0.21447358
180	0x3e389bb4	0.18028146
181	0x3d955d10	0.07293141
182	0xbe733770	-0.23751616
183	0x3d0a43b0	0.033755958
184	0xbdbdff30	-0.09277189
185	0xbd28fdc8	-0.04125765
186	0xbe0fb110	-0.14032388
187	0xbe7e01c4	-0.24805361
188	0xbe057ec8	-0.13036644
189	0xbe0a3418	-0.13496435
190	0xbde6bf7c	-0.112669915
191	0xbe7c0084	-0.24609572
192	0x3e2f8616	0.17140993
193	0x3e5c56f6	0.21517548
194	0xbdd8b90c	-0.1058217
195	0xbbb57b80	-0.005538404
196	0xbb5f4c80	-0.0034072697
197	0xbe258898	-0.16165388
198	0x3e56fa46	0.20993909
199	0xbdf09ae8	-0.11748296
200	0xbd9f7570	-0.07786071
201	0x3d9aa76c	0.075514644
202	0x3e52ca0c	0.20584887
203	0xbd8c2adc	-0.06844112
204	0xbdd3eb94	-0.10347667
205	0xbe7fe500	-0.249897
206	0x3d420930	0.047372043
207	0x3daa9d90	0.08330834
208	0xbe3efb40	-0.18650532
209	0x3e338240	0.17530155
210	0xbe1d288c	-0.15347499
211	0x3e19d057	0.15020882
212	0x3e09d266	0.13459167
213	0x3d89d1b0	0.06729448
214	0xbe42404c	-0.1896984
215	0xbcc655f6	-0.024210911
216	0xbd93178c	-0.071822256
217	0x3e85439c	0.26028144
218	0x3d618f50	0.055068314
219	0x3d5edb0d	0.05440812
220	0x3cb17215	0.021660844
221	0xbe1576c1	-0.14596082
222	0x3f01d4de	0.50715435
223	0x3dd6486c	0.10463032
224	0x3cf94384	0.030427702
225	0xbe8bff98	-0.2734344
226	0x3e3e3e44	0.1857844
227	0x3e6a082f	0.22854684
228	0xbdabd31c	-0.08389875
229	0x3dd96322	0.10614611
230	0xbe6dbe8e	-0.23217222
231	0x3cdbc0de	0.026825365
232	0x3def7a4c	0.11693248
233	0xbeb576b3	-0.35442123
234	0x3e2e52e6	0.1702381
235	0x3dbd87d8	0.09254426
236	0xbca63656	-0.020289581
237	0x3e40a5b6	0.18813214
238	0xbe4e0cf2	-0.20122126
239	0xbe3eb44b	-0.18623464
240	0x3ebd9c4f	0.37033316
241	0xbe5830ab	-0.21112315
242	0x3dd08ec4	0.101834804
243	0x3e247f6a	0.1606423
244	0x3e324286	0.17408189
245	0x3e7750e0	0.24151945
246	0x3e15cb4d	0.14628334
247	0x3e105857	0.14096199
248	0x3e09f19c	0.13471073
249	0x3d189c6b	0.037258547
250	0x3e0eaf92	0.13934162
251	0xbe3791c8	-0.17926705
252	0xbd358a95	-0.044321615
253	0xbe42d0cd	-0.19024964
254	0xbf13179f	-0.5745792
255	0x3d3660de	0.044525973

bias f4 [128]
0	0xbccbc1c3	-0.024872666
1	0x3af67816	0.0018804099
2	0xbdcb8200	-0.09936905
3	0x3cf314f9	0.029673086
4	0x3e3dc614	0.18532592
5	0xbce84fcc	-0.028358363
6	0x3d196e34	0.037458614
7	0x3dec2a80	0.11531544
8	0xbd3972d3	-0.04527552
9	0xbd29217b	-0.041291695
10	0xbdd0a1f4	-0.1018714
11	0x3df32cc0	0.1187377
12	0xbe51e26e	-0.20496532
13	0x3e331d90	0.17491746
14	0x3d905be8	0.0704878
15	0x3db7a3e2	0.08966805
16	0xbde5bf18	-0.11218089
17	0x3d6ae611	0.057348315
18	0xbd60b3c4	-0.054858938
19	0xbe73afea	-0.23797575
20	0x3cecee23	0.028922146
21	0x3e2ce4b7	0.16884123
22	0x3daefcb8	0.08544296
23	0xbe6d40dc	-0.23169273
24	0xbd8c4a74	-0.06850138
25	0xbe41640c	-0.18885821
26	0x3e77528c	0.24152583
27	0x3e18ad13	0.14909773
28	0xbd40e2d8	-0.047091335
29	0xbe30c912	-0.17264202
30	0xbc497718	-0.012296461
31	0xbdd64d28	-0.10463935
32	0x3e827caf	0.2548575
33	0xbe09c239	-0.13452996
34	0x3e0af4b7	0.13569914
35	0x3e0c9e2c	0.13732213
36	0x3e8a1593	0.26969585
37	0x3e460104	0.19336325
38	0x3de51d46	0.11187224
39	0xbde8e98a	-0.11372669
40	0xbe90878e	-0.2822842
41	0xbd1d5c77	-0.03841826
42	0x3e48cf05	0.19610222
43	0xbe1a4bee	-0.15068027
44	0xbe520537	-0.20509802
45	0xbdfbd660	-0.12296748
46	0xbe8c8464	-0.27444756
47	0xbe9450f1	-0.28968003
48	0xbe16f022	-0.14740041
49	0x3ea42417	0.32058784
50	0x3e200360	0.15626287
51	0xbd4ec729	-0.050482903
52	0xbe77dc6a	-0.24205175
53	0x3d0827a6	0.033240937
54	0x3dfe622a	0.12421067
55	0x3e336741	0.17519857
56	0x3c30730d	0.010769618
57	0xbe3f7904	-0.18698508
58	0xbe48c46d	-0.1960618
59	0x3e050328	0.12989485
60	0xbd65e5b0	-0.05612725
61	0xbe21582f	-0.15756296
62	0x3c128a79	0.008944147
63	0x3e996ed9	0.29967383
64	0x3e17db46	0.1482974
65	0x3da319e0	0.0796392
66	0x3e480fff	0.19537352
67	0xbc23dde6	-0.010001635
68	0x3dd7a0f2	0.10528745
69	0xbdf389a1	-0.11891485
70	0xba930d00	-0.0011219084
71	0x3da02700	0.07819939
72	0x3db28d8e	0.08718406
73	0x3dd7fdfd	0.10546491
74	0xbd120cdf	-0.035656806
75	0x3d64ebf8	0.0558891
76	0x3e8aabcc	0.27084196
77	0x3ea3a0fd	0.31958762
78	0xbe4c3994	-0.1994384
79	0x3dacaed7	0.084317856
80	0xbe64a4f3	-0.22328548
81	0xbe51b74b	-0.20480077
82	0x3e004f8e	0.12530348
83	0xbc8c7916	-0.017147582
84	0x3b035462	0.002003931
85	0x3e174dd8	0.14775789
86	0x3e4f1524	0.20222908
87	0x3da3963d	0.0798764
88	0xbe47ea26	-0.19522914
89	0x3ea8b8f6	0.32953614
90	0x3df9e4f7	0.12201875
91	0x3e0d8109	0.13818754
92	0xbd88c114	-0.06677452
93	0x3e9d7c4f	0.30758902
94	0x3e250824	0.16116387
95	0x3d8f4b51	0.06996787
96	0xbe0ea43e	-0.13929841
97	0xbe264db3	-0.16240577
98	0x3db7f606	0.08982472
99	0xbe6d03d4	-0.23145992
100	0x3d928c92	0.07155718
101	0xbddc66c1	-0.10761786
102	0x3d38b4df	0.045094367
103	0xbe3576f4	-0.17721158
104	0x3e725d66	0.23668441
105	0x3e5856b6	0.21126828
106	0xbdd2513b	-0.102694
107	0x3cbdf15a	0.023186374
108	0x3d13ba0e	0.036066107
109	0x3e05ca2a	0.130654
110	0xbda9a278	-0.082829416
111	0x3dd72681	0.10505391
112	0xbe63cfe0	-0.22247267
113	0x3d83b3e5	0.064307965
114	0x3df03c88	0.117302954
115	0x3d699652	0.057028122
116	0x3e690025	0.22753961
117	0x3db2eea4	0.08736923
118	0xbe388417	-0.18019138
119	0x3da22602	0.07917406
120	0x3d319350	0.04335338
121	0xbd0ac049	-0.033874784
122	0xbc8c13f0	-0.01709935
123	0x3dcbc128	0.09948951
124	0x3bd48a13	0.0064861863
125	0xbdcda608	-0.100414336
126	0xbde52d01	-0.111902244
127	0x3d884c55	0.06655184

weight f4 [256, 128]
0	0x3cc223b9	0.023698675
1	0x3d907c37	0.07054942
2	0xbd433977	-0.047662225
3	0xbdb5cd71	-0.088770755
4	0x3d8910e5	0.066926755
5	0x3da58cbc	0.080834836
6	0xbce4af13	-0.027915513
7	0xbbf8ff98	-0.0075988285
8	0xba35b817	-0.00069320336
9	0x3dd5792a	0.10423501
10	0x3ccf5f58	0.025314018
11	0xbd86f220	-0.065891504
12	0x3d2b9256	0.041887604
13	0xbcf25f51	-0.029586466
14	0xbd3ee1d4	-0.046602085
15	0x3db5e207	0.08881002
16	0xbd0344b6	-0.03204795
17	0x3d65a37e	0.05606412
18	0xbe05b32a	-0.13056627
19	0xbd69f3e1	-0.057117347
20	0x3c4f5ef4	0.012656916
21	0xbde71990	-0.112841725
22	0x3d8811e1	0.06644035
23	0x3d3313f6	0.043720208
24	0x3d9e8173	0.07739534
25	0xbd8cf82c	-0.068832725
26	0xbe00ef57	-0.12591301
27	0xbe13b162	-0.14423135
28	0xbd7f94de	-0.06239783
29	0x3d95a683	0.0730715
30	0x3d957c37	0.07299083
31	0xbc3956e8	-0.011312224
32	0x3c1d95df	0.009618252
33	0xbd8ac5fd	-0.067760445
34	0xbcc71400	-0.024301529
35	0x3d5a21e6	0.053254984
36	0x3b4162e0	0.0029508397
37	0xbdcc3b11	-0.099722035
38	0xbdacfa36	-0.084461614
39	0x3d0d4743	0.03449179
40	0xbd4096be	-0.04701876
41	0x3e2506f3	0.16115932
42	0x3bf1b877	0.0073767263
43	0xbc66d1f0	-0.014088139
44	0x3daa7d58	0.08324689
45	0x3d376e95	0.044783194
46	0x3dddf456	0.10837619
47	0x3d94cf14	0.072660595
48	0x3d964371	0.07337082
49	0xbc4da171	-0.012550698
50	0xbd40ac39	-0.047039244
51	0xbac06d9c	-0.0014681104
52	0x3d9a5c99	0.07537193
53	0x3d97843b	0.07398268
54	0x3d28e148	0.04123047
55	0xbe057243	-0.13031869
56	0xbdbc927a	-0.09207626
57	0x3d9d5441	0.07682086
58	0x3dce1567	0.10062676
59	0xbd2758cb	-0.040856164
60	0xbc182578	-0.009286277
61	0xbe1b9ab3	-0.15195732
62	0xbcb98223	-0.022645062
63	0xbd7e316f	-0.062058862
64	0xbd300f08	-0.042983085
65	0xbbf22f34	-0.007390881
66	0x3c35d020	0.011096984
67	0xbe084fba	-0.13311663
68	0xbd11f015	-0.03562935
69	0x3dcfba13	0.10142913
70	0xbcbef1b8	-0.02330862
71	0x3d5ed329	0.054400597
72	0xbd156252	-0.03647072
73	0x3da6476c	0.081190914
74	0xbabcd97e	-0.001440808
75	0xbd3e53f7	-0.046466794
76	0x3cff9b71	0.03120205
77	0xbdc0322f	-0.09384572
78	0x3d9f110f	0.077669255
79	0xbe1ad3bc	-0.15119833
80	0x3da3c73d	0.07996986
81	0x3e113cff	0.14183424
82	0x3d19d8e2	0.03756035
83	0x3d6bce95	0.05757006
84	0x3adbe60b	0.0016776932
85	0xbdb7d897	-0.08976858
86	0x3cd9c6b6	0.02658401
87	0xbdba1968	-0.09086877
88	0xbd82a173	-0.0637845
89	0xbd219e01	-0.039457325
90	0xbd348b87	-0.044078376
91	0xbd19aa79	-0.03751609
92	0xbcbc7399	-0.02300434
93	0xbd3d39db	-0.046197753
94	0x3d89ce3d	0.0672879
95	0xbdda527e	-0.106602654
96	0xbd2a25f4	-0.0415401
97	0xbd03397a	-0.032037236
98	0xbcbd1bb2	-0.023084495
99	0x3d6baee2	0.057539828
100	0xbd52580a	-0.05135349
101	0x3dc432a7	0.09579974
102	0xbe00108e	-0.12506315
103	0xba888ac0	-0.0010417327
104	0x3da04e2a	0.078274086
105	0xbccbf943	-0.02489913
106	0xbdefb5ce	-0.11704598
107	0x3cd15d8e	0.025557306
108	0xbd2c6fbc	-0.042098746
109	0xbe06a90a	-0.13150421
110	0xbda064e0	-0.078317404
111	0x3c563262	0.013073536
112	0x3da32c89	0.07967479
113	0xbbc73bda	-0.006080133
114	0xbd76354c	-0.06010942
115	0xbc3cc4d0	-0.011521533
116	0xbe14370d	-0.14474125
117	0xbd5e51c9	-0.054277215
118	0x3d1bc897	0.038033094
119	0xbe419925	-0.18906076
120	0x3d41c07e	0.047302715
121	0xbdd43e45	-0.103634395
122	0xbd124901	-0.035714153
123	0x3d6ccea6	0.057814263
124	0xbd1c1308	-0.038104087
125	0x3ce0cdc4	0.027441867
126	0x3ebf5441	0.37368968
127	0xbddaa0f8	-0.106752336
128	0x3c776ca9	0.01510159
129	0xbca85a35	-0.020550827
130	0xba8056c0	-0.0009791479
131	0x3d4fb349	0.05070809
132	0xbda3cae8	-0.07997686
133	0x3d0c4987	0.03424981
134	0xbdbf7210	-0.093479276
135	0x3d14a9cd	0.036294747
136	0x3a17e36c	0.00057940814
137	0x3d490d43	0.049084913
138	0xbd806894	-0.06269947
139	0x3d9e8ad7	0.07741325
140	0x3d625fc2	0.055267103
141	0xbd586117	-0.052826967
142	0xbd061eb3	-0.03274412
143	0xbded9018	-0.11599749
144	0x3db22276	0.08697979
145	0xbd441f6d	-0.047881532
146	0xbcded902	-0.027203087
147	0xbb8bfb90	-0.004271932
148	0x3db0177f	0.085982315
149	0xbe06d23e	-0.13166139
150	0xbc562aa5	-0.013071691
151	0x3d2d3232	0.042284198
152	0xbcb17e10	-0.021666557
153	0x3cc80ff8	0.024421677
154	0xbd953b91	-0.07286752
155	0x3d515e9a	0.05111561
156	0xbd49ed4b	-0.049298566
157	0x3d6688d6	0.05628284
158	0xbdd20fa1	-0.10256887
159	0xbdb23171	-0.087008364
160	0xbe2ffed1	-0.17187048
161	0x3d697121	0.056992654
162	0x3dbab705	0.091169395
163	0xbda78c67	-0.081810765
164	0x3cf77090	0.030205041
165	0xbdccbe88	-0.099972785
166	0xbbe404c4	-0.006958576
167	0x3d26146c	0.04054682
168	0x3dc43e13	0.09582152
169	0xbcdb1f21	-0.026748242
170	0x3da8d593	0.08243861
171	0xbdae3435	-0.085060515
172	0x3da75b99	0.08171768
173	0x3c08335a	0.008313024
174	0x3d6bb13d	0.057542074
175	0xbb9a6cca	-0.0047126757
176	0x3d301382	0.042987354
177	0xbe2bce3b	-0.1677789
178	0xbd1eb0ed	-0.03874295
179	0x3d154b99	0.03644905
180	0xbad08ec0	-0.0015911683
181	0xbca46bfe	-0.020071026
182	0xbd205568	-0.03914395
183	0xbd7b03e0	-0.061282992
184	0x3b2cd43a	0.0026371614
185	0xbce600f0	-0.028076619
186	0x3e440164	0.19141155
187	0xbd7972f8	-0.06090066
188	0xbd1bb4ca	-0.03801421
189	0x3e125b00	0.14292526
190	0xbc860c54	-0.0163633
191	0x3c032bef	0.00800608
192	0xbda2f1bd	-0.07956264
193	0x3c77d275	0.01512586
194	0x3d4fb4f3	0.050709676
195	0x3cd2a5ca	0.02571382
196	0xbd7ddd56	-0.06197866
197	0x3b4adc67	0.0030954124
198	0x3d9a6dbf	0.07540464
199	0xbd27eb80	-0.040996075
200	0x3d014635	0.031561095
201	0xbcd6e62d	-0.026232803
202	0x3c117537	0.008878044
203	0xbd80aff4	-0.062835604
204	0xbe0866dd	-0.13320489
205	0x3cadd19e	0.021218117
206	0x3d27b5ee	0.040944986
207	0x3d293abd	0.041315783
208	0xbd85a355	-0.06525294
209	0xbbf61bdf	-0.0075106467
210	0xbc309b78	-0.010779254
211	0xbca35c25	-0.019941399
212	0x3b0e1e6d	0.0021685616
213	0x3dbd4f62	0.09243657
214	0x3d55836b	0.052127283
215	0xbd9fdbfa	-0.07805629
216	0x3d1a9db6	0.03774806
217	0xbd8bbb5c	-0.06822845
218	0xbc818bdf	-0.015813766
219	0xbd43ff73	-0.047851037
220	0x3c25a3eb	0.010109882
221	0xbd4b8f85	-0.049697418
222	0x3da155a1	0.078776605
223	0xbc5b675e	-0.013391344
224	0xbd8a5290	-0.06754029
225	0xbd23ff81	-0.04003859
226	0xbdece9c6	-0.11568026
227	0xbbaec270	-0.0053332373
228	0xbd2fd985	-0.042932052
229	0xbb2a36e9	-0.002597267
230	0xbc9dfb04	-0.019284733
231	0x3dab849f	0.08374905
232	0x3cbec907	0.023289217
233	0xbe07d032	-0.13263014
234	0x3d41e273	0.0473351
235	0x3d39ff8a	0.045409717
236	0x3d1c4843	0.03815485
237	0xbd520ebc	-0.051283583
238	0x3c1bb036	0.009502461
239	0x3cc27241	0.023736121
240	0x3c4a2825	0.012338673
241	0xbd55560b	-0.05208401
242	0xbcc61a50	-0.024182469
243	0x3d6889d0	0.056772053
244	0x3b0e4745	0.002170996
245	0xbdaedf8c	-0.08538732
246	0x3c90dd49	0.017683642
247	0x3c95aa12	0.018269572
248	0x3dad7127	0.08468848
249	0x3d918c9a	0.07106896
250	0xbd1f26da	-0.03885541
251	0xbda28547	-0.07935577
252	0xbc327b66	-0.010893678
253	0x3ce61bec	0.028089486
254	0xbf8e2899	-1.110614
255	0xbd839364	-0.06424597

bias f4 [256]
0	0xbd8e39bf	-0.06944608
1	0x3d190ebe	0.037367575
2	0xbd927e8b	-0.071530424
3	0xbbb0f932	-0.0054008
4	0xbd8c53f1	-0.06851948
5	0xbd504d6e	-0.050855093
6	0xbcd8c6c2	-0.026461963
7	0xbd94bf9a	-0.072631076
8	0x3db45a5f	0.088062994
9	0x3dac3c7e	0.084099755
10	0x3d3ce28e	0.046114497
11	0xbc85ea03	-0.016346937
12	0x3e01686f	0.12637495
13	0xbbd8a962	-0.006611989
14	0xbdd337c9	-0.103133745
15	0xbd288363	-0.041140925
16	0xbd64d93a	-0.055871226
17	0xbd9db1c1	-0.076999195
18	0xbd6af249	-0.057359967
19	0x3e121314	0.1426509
20	0xbb4f1b81	-0.0031602087
21	0x3dde33d1	0.10849727
22	0x3d533f65	0.05157413
23	0x3d5a665f	0.053320285
24	0x3ccaeb5e	0.024770435
25	0x3c44204a	0.011970589
26	0x3cf67d66	0.030089092
27	0x3df5552f	0.11979138
28	0xbd3f522d	-0.04670923
29	0x3cc1410b	0.023590585
30	0x3d2ee361	0.042697314
31	0xbd338f31	-0.04383773
32	0xbd5c7078	-0.053818196
33	0x3d855e92	0.065121785
34	0xbc81ac0d	-0.01582911
35	0xbc6704d2	-0.01410027
36	0xbd941234	-0.072300345
37	0x3d610887	0.054939773
38	0x3beb6758	0.0071839504
39	0xbdabdbb8	-0.083915174
40	0xbc1e43c1	-0.0096597085
41	0xbc35d871	-0.011098967
42	0x3d32fd9a	0.043698885
43	0xbda39d72	-0.07989015
44	0x3ca4609a	0.020065594
45	0xbcff8558	-0.031191513
46	0x3d9412be	0.07230137
47	0xbd9ee6a2	-0.077588335
48	0x3caa8ec1	0.020820023
49	0xbd10805b	-0.03527866
50	0xbc056238	-0.008141093
51	0xbd8e58e1	-0.06950546
52	0x3b7bc1cf	0.003841508
53	0x3cfa2cf6	0.030539017
54	0x3dc37317	0.09543436
55	0xbb8aff45	-0.0042418563
56	0x3ade5d82	0.0016965123
57	0xbd45ae51	-0.048261944
58	0x3dfddd2b	0.123957
59	0xbc7552b6	-0.014973333
60	0xbc3b488d	-0.011430872
61	0xbcd0b1bd	-0.025475377
62	0xbc28b32b	-0.010296623
63	0x3d68eba7	0.05686536
64	0x3d121ad3	0.035670113
65	0x3d141d71	0.03616089
66	0xbca38020	-0.019958556
67	0xbdd81ec2	-0.105527416
68	0x3d6abedb	0.05731092
69	0x3cb4738e	0.022027757
70	0x3cc604e3	0.024172252
71	0x3c96b590	0.018397123
72	0xbdb33b83	-0.08751585
73	0x3e176153	0.1478322
74	0xbd9671c8	-0.07345921
75	0xbc833da6	-0.016020607
76	0x3d955f94	0.07293621
77	0xbce1199d	-0.027478034
78	0x3d33b6f6	0.043875657
79	0x3bbad9de	0.0057022413
80	0x3d29e579	0.041478608
81	0x3ddf4a3f	0.10902833
82	0x3e1c8c67	0.15287934
83	0xbdc64fc3	-0.09683182
84	0x3dbf4510	0.093393445
85	0x3d9b11ab	0.07571729
86	0xbd90c88c	-0.07069501
87	0xbc848437	-0.016176326
88	0x3dd1a664	0.102368146
89	0x3cb668e2	0.022266809
90	0xbdbdca06	-0.092670485
91	0xbd9c4a82	-0.07631399
92	0x3d935ef9	0.07195849
93	0xbd9527af	-0.0728296
94	0xbc877a9b	-0.016537955
95	0x3d89ed57	0.06734722
96	0xbddc976d	-0.1077107
97	0xbd39e2d4	-0.045382336
98	0x3d8b69d0	0.068072915
99	0x3db1646d	0.08661733
100	0xbd355c0d	-0.04427724
101	0x3ceec7d5	0.029148022
102	0xbbd10dcf	-0.00637982
103	0xbd92195b	-0.071337424
104	0x3da1464f	0.078747384
105	0x3dbff293	0.09372439
106	0xbd42bba9	-0.047542248
107	0xbd6584a2	-0.05603469
108	0xbc026d68	-0.007960655
109	0x3d5dd4b4	0.054157928
110	0x3b4163d8	0.0029508974
111	0x3e117c4b	0.1420757
112	0xbdddff58	-0.108397186
113	0x3d873c4d	0.06603298
114	0x3df1a729	0.117994614
115	0xbd890c91	-0.0669185
116	0xbe2c0527	-0.1679884
117	0xbc6357e1	-0.013875932
118	0xbbde7efa	-0.006790039
119	0x3dd20514	0.10254875
120	0x3c8e9645	0.017405638
121	0x3d7a5115	0.061112482
122	0xbd903070	-0.07040489
123	0xbda531f6	-0.0806617
124	0xbd768e86	-0.060194515
125	0xbb5c300d	-0.0033597976
126	0xbd6dbfed	-0.058044363
127	0xbd25b4e1	-0.040455703
128	0xbda057e1	-0.078292616
129	0xbd7b6371	-0.06137413
130	0x3de31f1c	0.11089918
131	0x3d06a2b6	0.032870017
132	0x3d9c0a3d	0.0761914
133	0x3d1715b0	0.036885917
134	0xbb833ee0	-0.004005298
135	0x3d713f55	0.05889829
136	0xbd234262	-0.03985823
137	0xbd44c148	-0.04803589
138	0x3e0af7b1	0.1357105
139	0xbd88e1a4	-0.066836625
140	0xbbbf8715	-0.0058449605
141	0x3de88796	0.11353986
142	0x3d66322d	0.056200195
143	0xbbc245e9	-0.005928744
144	0xbd8d7346	-0.06906752
145	0xba4ea330	-0.0007882593
146	0xbbc29f64	-0.005939411
147	0x3d75595d	0.059899677
148	0x3cbdea9e	0.023183163
149	0x3d8805af	0.06641709
150	0xbda16dda	-0.07882281
151	0x3d3f4a1a	0.046701528
152	0xbd3b54d9	-0.045735214
153	0xbd8ba7b6	-0.06819098
154	0x3db014bf	0.08597707
155	0x3d4cab8c	0.049968287
156	0xbc0d254d	-0.00861485
157	0xbd1dd4e9	-0.038533125
158	0x3d16486c	0.03669016
159	0x3c29d0cd	0.010364723
160	0xbd9f115e	-0.077669844
161	0xbdc0673c	-0.093946904
162	0x3cf403d3	0.02978698
163	0x3b497586	0.0030740215
164	0xbd582605	-0.052770633
165	0xbc80bc34	-0.015714742
166	0x3b2fb96e	0.0026813406
167	0x3ce97feb	0.028503379
168	0xbc160ecb	-0.0091588
169	0xbd4e65b8	-0.050389975
170	0xbc69c4f8	-0.014268152
171	0xbd844e40	-0.064602375
172	0xbd953159	-0.07284803
173	0x3dd9c389	0.106329985
174	0x3d2cea32	0.042215534
175	0x3ac8648a	0.0015288752
176	0x3c5517b5	0.0130061405
177	0x3c473525	0.012158667
178	0x3d75ea75	0.06003805
179	0xbd0a1e99	-0.033720586
180	0x3d8f4e4f	0.06997358
181	0xbbdea175	-0.0067941495
182	0xbd2f2fa8	-0.042770058
183	0xbd216f15	-0.039412577
184	0x3d9c7b4d	0.07640705
185	0xbd6acdfd	-0.057325352
186	0xbd8f14db	-0.069864
187	0x3db129db	0.086505614
188	0xbcb60258	-0.022217914
189	0xbd9b246b	-0.075753056
190	0xbd89709e	-0.06710933
191	0x3e0702ad	0.13184614
192	0xbc867ea1	-0.016417803
193	0x3d58f20e	0.052965216
194	0x3da473fc	0.08029935
195	0x3d590ba3	0.052989613
196	0xbda28016	-0.07934587
197	0xbd433e15	-0.047666628
198	0x3d43cb71	0.04780144
199	0xbd933bbf	-0.0718913
200	0xbdfc75e1	-0.12327171
201	0xbd56d28c	-0.052446887
202	0x3d939425	0.07205991
203	0x3d4cddf6	0.050016366
204	0xbbfa576d	-0.0076398165
205	0xbdbf4d6b	-0.09340938
206	0xbdad46b6	-0.08460753
207	0xbc4a68db	-0.012354101
208	0xbd561f8f	-0.05227619
209	0xbd0861b6	-0.03329631
210	0x3d8685c8	0.065684855
211	0x3d10a362	0.035312064
212	0xbd944b47	-0.072409205
213	0x3c799004	0.01523209
214	0x3e04f98d	0.12985821
215	0x3d79b266	0.06096115
216	0xbd20ff6c	-0.03930609
217	0xbc426e80	-0.011867166
218	0xbdc2793c	-0.0949578
219	0xbd815f68	-0.063170254
220	0xbd634730	-0.05548781
221	0x3bcabb48	0.0061868764
222	0x3dcc193c	0.099657506
223	0xbd1d1a1d	-0.03835498
224	0xbd71051d	-0.058842767
225	0xbcc8c80c	-0.024509452
226	0x3d03a7b6	0.032142363
227	0x3ddd0ef3	0.10793867
228	0xbd99e9ce	-0.07515298
229	0x3d1bb26b	0.03801195
230	0xbd842772	-0.06452836
231	0x3d606062	0.054779418
232	0x3ddcab4b	0.10774859
233	0x3d18dae3	0.03731812
234	0x3d6e1e70	0.058134496
235	0x3d1e6bac	0.038676903
236	0xbd2af8e0	-0.041741252
237	0xbd2b4144	-0.04181029
238	0xbdb732e9	-0.08945257
239	0x3d5816d6	0.052756153
240	0xbb9c2154	-0.004764715
241	0x3e0a44b6	0.13502774
242	0xbc1086a1	-0.0088211605
243	0xbdbe4e81	-0.09292317
244	0x3d3167f2	0.04331202
245	0x3df3a47d	0.11896608
246	0x3a21b4d3	0.00061686075
247	0x3d0bbef5	0.034117658
248	0x3d2ae6ac	0.041723892
249	0xbdc17437	-0.09445994
250	0xbc104207	-0.008804805
251	0x3dfa4f8b	0.12222203
252	0xbdc9fd6c	-0.098627895
253	0xbd2e91ec	-0.04261963
254	0x3c048286	0.00808776
255	0xbd4bacae	-0.049725227

weight f4 [64, 256]
0	0xbd9fa265	-0.07794646
1	0x3d31c3d5	0.04339965
2	0xbd2a72be	-0.041613333
3	0x3d956e6f	0.07296454
4	0x3bcb1f95	0.006198833
5	0x3d72f7c0	0.059318304
6	0xbcaccb9f	-0.021093188
7	0xbb81a323	-0.003956215
8	0x3d6dcbdf	0.058055755
9	0x3c89f210	0.016839057
10	0x3d2bfc20	0.041988492
11	0xbcf938e3	-0.030422634
12	0xbc3a8147	-0.011383361
13	0x3c2d8b3a	0.010592276
14	0x3d06463d	0.03278183
15	0x3d96d1d5	0.07364241
16	0xbd0890cd	-0.033341218
17	0x3d3b1097	0.04567012
18	0x3c237f36	0.00997906
19	0x3daf78fd	0.085679986
20	0xbd74285e	-0.05960881
21	0x3ca4230d	0.020036245
22	0xbd039326	-0.032122754
23	0xbcd97cd4	-0.02654878
24	0x3dad9aad	0.08476768
25	0xbc291e49	-0.010322162
26	0x3d955dd5	0.07293288
27	0xbd559d32	-0.052151866
28	0x3d81e03d	0.06341598
29	0xbd27bb5f	-0.040950175
30	0x3da119d5	0.07866255
31	0x3e0d7c92	0.13817051
32	0x3c181618	0.009282611
33	0xbd1df7dd	-0.03856646
34	0xbd7a2e4a	-0.0610793
35	0x3d9d1341	0.07669688
36	0x3d742d4f	0.059613522
37	0x3c3a8104	0.011383299
38	0xba0333d1	-0.00050049747
39	0xbd8e48a2	-0.06947447
40	0x3ce09aef	0.027417628
41	0x3d5417e0	0.05178058
42	0x3d5ae16a	0.053437628
43	0xbc984d54	-0.01859156
44	0x3c87ec36	0.016592126
45	0xbd4920d7	-0.049103584
46	0xbbbc0faa	-0.005739172
47	0x3c52ec08	0.012873657
48	0xbd0f93c1	-0.03505302
49	0xbc3f3e9d	-0.011672643
50	0xbd531ae0	-0.051539302
51	0xbd4756b3	-0.048666667
52	0x3d3c5469	0.045978937
53	0x3c40f4f5	0.011777152
54	0x3d6b1395	0.05739172
55	0x3d618e79	0.055067513
56	0x3cbfd3c6	0.023416411
57	0x3dcdea48	0.10054451
58	0x3e0c74b6	0.13716397
59	0x3d7ba571	0.061437074
60	0x3d976690	0.07392609
61	0xbb642901	-0.003481448
62	0xbcde0ca4	-0.027105637
63	0x3c4d209c	0.012519982
64	0x3c82ac66	0.015951347
65	0x3d2ce3f4	0.04220958
66	0x3d15e744	0.036597505
67	0xbcc1f8e2	-0.023678247
68	0x3d828111	0.06372274
69	0x3d0fdc19	0.03512201
70	0xbd65f425	-0.056141037
71	0xbd79934c	-0.06093149
72	0xbd729a54	-0.05922921
73	0x3ce2df74	0.027694441
74	0xbcd13d16	-0.025541823
75	0x3cf193d7	0.02948944
76	0x3d9b9b0c	0.07597932
77	0xbd7816c3	-0.060568582
78	0x3d349eb7	0.044096675
79	0x3dd43df4	0.10363379
80	0x3e01c249	0.1267177
81	0x3d4409e2	0.047860987
82	0xbd12ccfe	-0.035840027
83	0xbc9127c3	-0.017719155
84	0x3d80ca85	0.062886275
85	0xbd0cce00	-0.034376144
86	0xbd860698	-0.065442264
87	0xbd048502	-0.03235341
88	0xbd3d57d0	-0.046226323
89	0x3bce73fb	0.006300447
90	0x3b97680c	0.0046205577
91	0x3a7be480	0.0009608939
92	0xbcf1ae54	-0.029502071
93	0xbd29237f	-0.041293617
94	0x3db73158	0.089449584
95	0x3ddcbda9	0.10778362
96	0xbacbbcb5	-0.001554391
97	0xbc3323f0	-0.010933861
98	0x3cbd5cb3	0.023115491
99	0xbcf3ff97	-0.02978496
100	0x3cb00f6c	0.021491729
101	0x3d68b6c4	0.056814924
102	0xbc1410c0	-0.009037197
103	0x3df2f4ea	0.1186312
104	0xbbac5d18	-0.005260121
105	0xbcdd8183	-0.027039295
106	0x3dd13630	0.102154136
107	0x3b10b541	0.0022080692
108	0xbd7fd660	-0.062460303
109	0xbcfb3fa8	-0.030670002
110	0xbdf3f161	-0.11911274
111	0xbd7d4138	-0.061829776
112	0x3d6edf98	0.058318704
113	0x3c2a162c	0.010381263
114	0xbbea8520	-0.007156983
115	0xbd353134	-0.044236377
116	0xbe150f75	-0.14556678
117	0x3d5a2859	0.053261135
118	0x3d1db749	0.038504872
119	0x3dd7b1df	0.10531973
120	0x3e1aff97	0.15136562
121	0xbd92290d	-0.07136736
122	0x3d1e6dd8	0.038678974
123	0xbc876753	-0.016528761
124	0x3c48014b	0.0122073395
125	0xb8a15112	-7.692179e-05
126	0xbcadf796	-0.021236222
127	0xbcbfabe7	-0.0233974
128	0xbd7043be	-0.058658354
129	0x3c505c63	0.012717339
130	0xbc20ca17	-0.009813807
131	0xbd6aa606	-0.05728724
132	0x3cdf0eb0	0.027228683
133	0xbcc4757a	-0.023981798
134	0xbcbd82e4	-0.023133703
135	0xbcc2fade	-0.023801263
136	0x3d555e81	0.05209208
137	0xbd60e094	-0.054901674
138	0xbae061c2	-0.0017118978
139	0x3d532836	0.05155202
140	0xbd77630c	-0.060397193
141	0x3d27ddfd	0.04098319
142	0x3d7c4df1	0.06159777
143	0xbc148f4c	-0.009067368
144	0xbd780afc	-0.06055735
145	0x3d85ac08	0.06526953
146	0xbbf34f6d	-0.00742524
147	0x3d4a3803	0.049369823
148	0xbd4f0b2e	-0.05054777
149	0xbcb55024	-0.02213294
150	0x3ca19364	0.019723602
151	0x3d46721e	0.048448674
152	0x3ae38bee	0.0017360428
153	0x3d41229d	0.04715215
154	0x3d559f38	0.052153796
155	0x3da9c835	0.082901396
156	0x3ce94194	0.028473653
157	0x3d0d6304	0.034518257
158	0xbd2af647	-0.041738775
159	0x3d16c86f	0.036812242
160	0x3d69fa28	0.057123333
161	0x3def3853	0.11680665
162	0xbd611984	-0.054955974
163	0x3d75f499	0.06004772
164	0x3d1ddd77	0.038541283
165	0x3b612291	0.0034352879
166	0xbd8de333	-0.069281004
167	0xbceadecc	-0.028670691
168	0x3da6a169	0.08136255
169	0x3c2f1dcb	0.010688256
170	0x3d830c43	0.06398823
171	0xbd53b6ae	-0.05168789
172	0x3a398ee3	0.0007078482
173	0xbdbeb4ef	-0.09311854
174	0x3d3391a0	0.04384005
175	0xbce47fd8	-0.027892992
176	0x3d3e697d	0.04648732
177	0x3d82a0ab	0.06378301
178	0xbdebeb62	-0.11519505
179	0x3ca846e4	0.020541616
180	0x3c94ce5f	0.018164812
181	0x3dae0c73	0.08498468
182	0x3cfc99a9	0.03083499
183	0x3dcb3d53	0.09923806
184	0xbce8ed91	-0.028433593
185	0xbc8478e0	-0.016170919
186	0x3c5b4010	0.013381973
187	0x3d50e310	0.050997794
188	0xbcfc733c	-0.030816667
189	0xbcf30fb4	-0.029670574
190	0x3c0da1b2	0.008644508
191	0xbd516ae0	-0.051127315
192	0x3d9a75a9	0.07541973
193	0x3e0d21f9	0.13782491
194	0x3d0b87cd	0.034065057
195	0x3cdbcfe7	0.026832534
196	0xbc9524ab	-0.018205961
197	0x3d88b074	0.06674281
198	0x3cf1e8fd	0.029530043
199	0x3ce8aeb8	0.028403625
200	0xbe3919f4	-0.18076307
201	0x3d251028	0.04029861
202	0x3c8832c5	0.016625771
203	0xbd9e43c1	-0.07727767
204	0xbd3746af	-0.044745144
205	0x3c99c8f6	0.018772583
206	0x3bf265ad	0.0073973746
207	0xbcad8fd9	-0.021186756
208	0x3db56d78	0.0885877
209	0x3d4e6fbf	0.050399538
210	0x3d371199	0.044694517
211	0xbd5b13e5	-0.05348577
212	0xbbf63a1e	-0.0075142523
213	0x3d8a5a91	0.067555554
214	0x3dba3b0a	0.09093292
215	0x3d6a4f06	0.05720427
216	0x3cc494b4	0.023996688
217	0x3bdb7718	0.0066975467
218	0xbd2b0c44	-0.041759744
219	0x3cdbc320	0.026826441
220	0xbc865f60	-0.0164029
221	0x3de19742	0.11015178
222	0x3d2115bc	0.03932737
223	0xbd464d7a	-0.04841373
224	0xbc1be07a	-0.009513969
225	0xbc508ada	-0.012728417
226	0x3c9caf8a	0.019126672
227	0x3da5b5a9	0.080912896
228	0x3d46b59c	0.04851304
229	0x3decfc7f	0.11571597
230	0xbd2eafdc	-0.04264818
231	0x3cc5beb2	0.024138782
232	0xbd85eb30	-0.06538999
233	0x3dae98dd	0.0852525
234	0xbdb37be3	-0.08763864
235	0xbc3585b8	-0.011079244
236	0xbd56d559	-0.052449558
237	0xbc6d717f	-0.014492392
238	0xbd1812a7	-0.037127163
239	0x3c59b1be	0.013287006
240	0x3c1760d0	0.0092393905
241	0xbd64332b	-0.05571286
242	0xbcc68dd8	-0.024237558
243	0xbced4aef	-0.028966395
244	0xbc2133f6	-0.009839049
245	0xbd7bb980	-0.061456203
246	0x3d12cb9a	0.0358387
247	0x3c0b8727	0.00851611
248	0x3db7a422	0.08966853
249	0x3cd91dd0	0.026503474
250	0x3dcacffa	0.0990295
251	0xbc4bc1ce	-0.012436343
252	0xbd112201	-0.03543282
253	0xbaf8e700	-0.0018989742
254	0xbd125cd4	-0.03573306
255	0xbd277d5a	-0.04089103

bias f4 [64]
0	0x3db8114c	0.08987674
1	0xbd923a27	-0.07139998
2	0xbd5ee8cc	-0.05442123
3	0x3c8e6047	0.017379893
4	0x3dd995f8	0.106243074
5	0xbd386594	-0.045018747
6	0xbd03d313	-0.032183718
7	0xbd358a0e	-0.044321112
8	0xbcb1423f	-0.021638034
9	0x3d9138db	0.070909224
10	0xbd59623f	-0.05307221
11	0xbd17f426	-0.037098072
12	0x3dc99b28	0.09844047
13	0xbd6ac95f	-0.05732095
14	0xbd42f1bd	-0.04759382
15	0xbd9972cd	-0.074926
16	0x3d83e6b2	0.06440486
17	0x3d16323e	0.03666901
18	0xbd5ac593	-0.053411078
19	0x3c9cfcd4	0.019163527
20	0x3d334559	0.043767307
21	0xbd37d9c5	-0.044885416
22	0x3e19b18d	0.15009136
23	0xbc64f4e9	-0.013974407
24	0x3d20d7b0	0.039268196
25	0xbc2c8730	-0.010530278
26	0x3da7168c	0.08158597
27	0x3e0dc646	0.13845167
28	0xbc72bc43	-0.014815393
29	0x3d205556	0.039143883
30	0x3ca523af	0.020158617
31	0x3d049064	0.032364264
32	0x3ccbf748	0.024898186
33	0xbd64d3a8	-0.055865914
34	0xbd17646f	-0.036961015
35	0xbcadda42	-0.021222237
36	0x3ab37f02	0.0013694467
37	0x3d911cf4	0.070856005
38	0xbd20eb43	-0.039286863
39	0xbd4eedde	-0.050519817
40	0xbc3148f2	-0.010820614
41	0xbd907adc	-0.070546836
42	0x3d9c33e6	0.07627086
43	0x3d15830f	0.03650194
44	0x3d14a5f3	0.036291074
45	0xbd063099	-0.03276119
46	0xbd069711	-0.032858912
47	0x3ce2964b	0.027659556
48	0x3d4074da	0.04698644
49	0xbd239920	-0.039940953
50	0xbd0bcefc	-0.034132943
51	0xbd8f332d	-0.06992183
52	0x3d944d08	0.07241255
53	0xbd6d6f2d	-0.057967354
54	0xbba9b757	-0.0051793265
55	0x3c8c11dc	0.01709836
56	0x3d1afd06	0.03783896
57	0x3d884134	0.066530615
58	0x3e1aadf1	0.15105416
59	0x3d63d019	0.05561838
60	0x3d4f93e0	0.050678134
61	0xbd823cd5	-0.06359259
62	0xbc8d9a3b	-0.017285457
63	0x3cd95201	0.02652836

weight f4 [32, 64]
0	0x3e087f5b	0.13329832
1	0xbcde02fa	-0.027101029
2	0xbd91d96e	-0.071215495
3	0x3e12c8f0	0.14334464
4	0x3dac2ba5	0.08406762
5	0xbddeabe6	-0.10872631
6	0x3decb000	0.11557007
7	0x3d7ecbfe	0.06220626
8	0xbb975506	-0.00461829
9	0xbe03c55a	-0.12868252
10	0xbdf9ee00	-0.12203598
11	0xbe096cc1	-0.13420393
12	0x3c0102ea	0.00787423
13	0xbdee50f2	-0.11636533
14	0x3dde9e3a	0.10870023
15	0x3c8343d9	0.016023563
16	0xbb4f225e	-0.0031606178
17	0x3db7b12c	0.0896934
18	0x3cb7d1d1	0.022438915
19	0x3e24a616	0.16078982
20	0xbd84c91d	-0.06483672
21	0xbd4c23e2	-0.049838908
22	0x3e35dffa	0.17761222
23	0xbe2d50f1	-0.16925408
24	0x3de63b60	0.11241794
25	0x3e0cf614	0.13765746
26	0x3dd9d29e	0.10635875
27	0xbc71fee6	-0.014770245
28	0xbd8891ad	-0.066684105
29	0x3d85f6cb	0.06541213
30	0x3d7c9730	0.06166762
31	0xbd478fb9	-0.04872105
32	0xbd86aeb0	-0.06576288
33	0x3ca569ca	0.020192046
34	0x3d95089a	0.07277031
35	0x3d70724d	0.058702756
36	0x3e32cd2a	0.17461076
37	0x3e253914	0.16135055
38	0x3d5154e8	0.051106364
39	0x3ce50374	0.027955748
40	0xbd918778	-0.07105917
41	0xbd3c165a	-0.045919754
42	0xbc82df40	-0.015975595
43	0xbd8f4db8	-0.069972456
44	0xbd97f0c3	-0.074189685
45	0xbd814a68	-0.0631302
46	0xbd138631	-0.036016647
47	0x3bfab68c	0.007651156
48	0xbe017da6	-0.12645587
49	0x3cc4f97b	0.024044743
50	0xbbb704c0	-0.005585283
51	0x3dc7e078	0.09759611
52	0xbd054e24	-0.032545224
53	0xbdf196b6	-0.11796324
54	0xbe7fc493	-0.24977331
55	0xbc9ab358	-0.018884346
56	0x3d556beb	0.05210487
57	0xbdd1ec10	-0.102501035
58	0x3dce7504	0.10080913
59	0xbce1bf56	-0.027557056
60	0xbdb0e248	-0.0863691
61	0x3dee1258	0.116245925
62	0x3d95be48	0.07311684
63	0x3b93db16	0.004512201
64	0xbd8e49a4	-0.069476396
65	0x3daafc1e	0.08348869
66	0x3de8683c	0.11348006
67	0xbde372b5	-0.11105863
68	0x3d93697b	0.07197853
69	0xbd9a241e	-0.0752642
70	0x3d175584	0.03694679
71	0xbde396b8	-0.11112732
72	0x3d8537d5	0.0650479
73	0xbda26c22	-0.07930781
74	0xbd42a4b4	-0.047520354
75	0xbca0de8d	-0.01963737
76	0x3c4f7321	0.012661726
77	0xbdff324c	-0.12460765
78	0xbde8cd27	-0.11367255
79	0x3cc45328	0.023965433
80	0xbda18b99	-0.07887954
81	0xbcf6fc4a	-0.030149598
82	0x3d5b7b2c	0.053584263
83	0xbd3ec9a5	-0.046579022
84	0xbc237073	-0.00997554
85	0xbc00ef40	-0.007869542
86	0x3d79eeaf	0.061018642
87	0xbaae54f1	-0.0013300461
88	0xbe01344a	-0.12617603
89	0x3d968d83	0.0735121
90	0xbdb851cb	-0.08999976
91	0xbdc91604	-0.09818652
92	0x3d439d08	0.04775718
93	0x3c272cc0	0.01020354
94	0x3dde28c0	0.10847616
95	0x3d83ec43	0.06441548
96	0x3cf30648	0.029666081
97	0xbde13e34	-0.109981924
98	0xbd04d3d9	-0.032428596
99	0xbdae8cfa	-0.08522983
100	0xbd610341	-0.054934744
101	0x3b4d5772	0.003133264
102	0x3dc128bc	0.094315976
103	0x3d8184e6	0.063241765
104	0x3d86405c	0.06555244
105	0x3d1bdb93	0.0380512
106	0xbdeee7b5	-0.11665288
107	0xbdeee244	-0.116642505
108	0x3d885959	0.06657667
109	0xbda15c26	-0.07878904
110	0x3d2ba0fc	0.041901574
111	0xbc74a9ce	-0.014933063
112	0x3d899d24	0.06719425
113	0x3cbaf090	0.022819787
114	0x3da98962	0.08278157
115	0x3d089bd8	0.03335175
116	0xbdf42e61	-0.119229086
117	0x3d88fd18	0.06688899
118	0xbd6d2f08	-0.05790618
119	0x3d84ba30	0.06480825
120	0x3d138dc4	0.03602387
121	0xbe0753c6	-0.13215551
122	0xbd7ae38d	-0.061252166
123	0x3d936a80	0.07198048
124	0xbc2a75d0	-0.010404065
125	0x3d540c40	0.051769495
126	0xbdf16426	-0.1178668
127	0xbc5164fe	-0.012780426
128	0xbd24e6c4	-0.040259138
129	0x3b584e09	0.0033005497
130	0x3db4483e	0.088028416
131	0xb86b0ab8	-5.603835e-05
132	0x3db09734	0.0862259
133	0x3cef3a45	0.02920259
134	0x3c900bc8	0.017583743
135	0xbcd6c677	-0.026217682
136	0xbdc53806	-0.09629826
137	0xbd49af27	-0.049239304
138	0xbdfe474c	-0.124159425
139	0x3e3926cc	0.18081206
140	0x3e005cbb	0.12535374
141	0x3d09cc94	0.033642367
142	0xbced1abc	-0.028943412
143	0xbde568da	-0.112016395
144	0xbe415acc	-0.18882293
145	0x3db58f34	0.088652045
146	0x3dd92db6	0.10604422
147	0xbcb8bec6	-0.022551905
148	0x3e0acc0f	0.13554405
149	0xbb05a980	-0.002039522
150	0x3e18e853	0.14932375
151	0x3dbe163e	0.09281586
152	0x3dbd1072	0.09231652
153	0xbdd6696d	-0.10469327
154	0x39eea1e6	0.0004551552
155	0xbe3179fc	-0.1733169
156	0x3cd10145	0.0255133
157	0xbd62d70f	-0.055380877
158	0xbe03be9c	-0.1286568
159	0x3c6dad1a	0.014506603
160	0x3d9b7732	0.07591094
161	0x3e17a98e	0.14810774
162	0xbdd20ff8	-0.10256952
163	0xbdb57be2	-0.088615194
164	0xbba1e464	-0.0049405564
165	0xbccf8f20	-0.025336802
166	0x3de7ecfb	0.11324497
167	0x3c62f990	0.013853446
168	0xbce15543	-0.027506476
169	0xbd862c55	-0.065514244
170	0x3cd1fb45	0.02563251
171	0x3ce3f077	0.027824624
172	0x3db26f52	0.08712639
173	0x3d6b54ff	0.057454105
174	0xbdb17e80	-0.08666706
175	0xbdfa4f96	-0.12222211
176	0x3dbfb712	0.0936109
177	0xbde862da	-0.113469794
178	0x3dce9f16	0.10088937
179	0xbd2c1a80	-0.04201746
180	0xbe3f00ea	-0.18652692
181	0x3ddcc417	0.10779589
182	0x3e57eda7	0.21086751
183	0xbc178678	-0.009248368
184	0x3d573077	0.052536454
185	0xbd0646fb	-0.032782536
186	0xbd8e9919	-0.06962795
187	0x3dc382e3	0.09546449
188	0xbdde1026	-0.10842924
189	0x3d78ca95	0.060740072
190	0xbd9a7876	-0.07542507
191	0x3da98562	0.08277394
192	0xbd8daf56	-0.06918208
193	0xbd8250e4	-0.06363085
194	0xbc9887f0	-0.018619508
195	0x3d0e0296	0.034670435
196	0xbc841a1a	-0.016125727
197	0x3cfabb88	0.030607
198	0xbde8ff19	-0.11376781
199	0xbd8e5fb4	-0.06951848
200	0x3c25854c	0.010102581
201	0x3e280a80	0.16410255
202	0xbd1e3477	-0.038624253
203	0x3e7d6a3c	0.24747556
204	0xbb33ac9b	-0.0027416113
205	0x3cffabb0	0.031209797
206	0x3d579fd4	0.05264266
207	0x3d2dce34	0.04243298
208	0x3ce25184	0.02762676
209	0x3dcd8cb8	0.100366056
210	0x3db16b75	0.08663074
211	0xbdf54456	-0.11975925
212	0x3c320690	0.010865822
213	0x3d19c57c	0.03754185
214	0x3e2ad7db	0.16683905
215	0x3e929bf9	0.28634623
216	0xbe080290	-0.13282228
217	0xbd93eb86	-0.07222657
218	0x3d9fed77	0.07808965
219	0xbbb8b815	-0.0056371787
220	0xbd3ccac7	-0.04609182
221	0x3d14cc5e	0.036327712
222	0xbdc5c87a	-0.096573785
223	0x3e15e0a4	0.14636475
224	0xbd14d0b8	-0.036331862
225	0xbcb5f442	-0.022211198
226	0x3d7ca812	0.06168372
227	0xbd148346	-0.036258005
228	0xbe0c0fac	-0.13677853
229	0xbdf581c2	-0.1198764
230	0x3df00222	0.11719157
231	0xbcba03a9	-0.022706823
232	0x3d2d8f3a	0.04237292
233	0xbdd0db79	-0.10198111
234	0x3c8241c9	0.01590051
235	0x3d377a91	0.044794623
236	0x3d9255b7	0.07145255
237	0x3ca11edf	0.01966804
238	0x3dbdb9fa	0.09263988
239	0xbda6aa88	-0.08137995
240	0x3e32c335	0.17457278
241	0x3d547e00	0.051877975
242	0xbd7ef048	-0.06224087
243	0x3d0ebf8f	0.034850653
244	0x38dc2614	0.0001049751
245	0xbddd919e	-0.1081879
246	0x3e847e2b	0.2587751
247	0x3e11dace	0.14243624
248	0x3dd96c93	0.10616412
249	0x3d3ad560	0.045613647
250	0x3dbaafe7	0.09115582
251	0x3de0a495	0.109688915
252	0x3dedc773	0.116103075
253	0xbe1bc723	-0.15212683
254	0x3c2e8ae0	0.010653228
255	0xbc9b9210	-0.018990546

bias f4 [32]
0	0x3d9e0a66	0.07716827
1	0xbde5e281	-0.11224843
2	0x3e3ee663	0.18642573
3	0x3e044ca1	0.12919857
4	0x3dab2aa5	0.08357743
5	0xba5d50ad	-0.00084425026
6	0xbde16465	-0.11005477
7	0x3e0cef99	0.13763274
8	0x3e18fb5d	0.14939637
9	0xbd59abe8	-0.05314246
10	0x3e03465e	0.12819812
11	0x3cde2341	0.02711642
12	0x3dd493df	0.10379767
13	0x3e431a1d	0.1905293
14	0x3d9ba95a	0.076006606
15	0x3dd8e424	0.10590389
16	0x3d24c620	0.04022801
17	0x3e04ec96	0.12980875
18	0x3dd41aca	0.10356672
19	0x3dc9792a	0.09837563
20	0xbd85ae9f	-0.06527447
21	0x3c204913	0.009783047
22	0x3d4d97ad	0.050193477
23	0xbd98a872	-0.074540034
24	0x3d38d061	0.0451206
25	0x3d584c34	0.052807048
26	0xbd950700	-0.07276726
27	0x3cc84397	0.024446292
28	0xbd98b12c	-0.07455668
29	0x3e32a2dd	0.1744494
30	0x3d8ac506	0.067758605
31	0xbdcd5e57	-0.100277595

weight f4 [3, 32]
0	0xbd313aa3	-0.04326881
1	0x3d32f888	0.04369405
2	0x3e563aed	0.20920916
3	0x3dc614ad	0.09671912
4	0xbdb2d517	-0.0873205
5	0x3e3ca4fc	0.18422312
6	0xbcb924b0	-0.022600502
7	0x3be9f3d4	0.0071396623
8	0x3e3b74fb	0.18306343
9	0x3d8c2374	0.068427
10	0x3e14bdd0	0.14525533
11	0xbdfbf0d4	-0.12301794
12	0x3e43fbda	0.19139042
13	0xbeae518e	-0.34046596
14	0xbe12f451	-0.14351012
15	0xbeb1f665	-0.34758297
16	0x3e1fad03	0.15593342
17	0x3e11920c	0.14215869
18	0x3d410004	0.047119156
19	0x3cc9f51a	0.024653006
20	0x3ac01db0	0.0014657285
21	0x3e49d560	0.19710302
22	0x3e5be9a5	0.21475847
23	0xbe883330	-0.26601553
24	0x3d63777a	0.055533864
25	0xbe0d2af4	-0.13785917
26	0xbdd07915	-0.101793446
27	0xbdb34423	-0.087532304
28	0xbe139ef6	-0.14416108
29	0xbe176f94	-0.14788657
30	0x3e1bcebd	0.15215583
31	0x3e238eca	0.15972438
32	0xbe2a2336	-0.16614994
33	0x3dbfc95c	0.09364578
34	0x3d4e2fa9	0.05033842
35	0x3de079d6	0.10960738
36	0xbd2f16a9	-0.04274622
37	0x3e3aa6a2	0.18227628
38	0xbda0f0b4	-0.078584105
39	0xbe328458	-0.17433298
40	0xbe48d9eb	-0.19614379
41	0xbc19b4e6	-0.009381508
42	0xbe34b04f	-0.17645381
43	0xbe5587a0	-0.20852518
44	0x3e7940a5	0.24341066
45	0x3db73c7f	0.089470856
46	0xbe6b5f36	-0.22985539
47	0x3e02dbaf	0.12779115
48	0x3e166d7b	0.14690201
49	0xbe5cbdd5	-0.2155679
50	0x3d11e93c	0.03562282
51	0x3d29550c	0.041340873
52	0xbe1f77e7	-0.15573083
53	0x3da94c03	0.08266451
54	0x3e2eb380	0.17060661
55	0x3b4163c2	0.0029508923
56	0xbe6855a1	-0.22688915
57	0xbe8a1ab9	-0.26973513
58	0xbdf9244a	-0.12165125
59	0xbe097538	-0.13423622
60	0xbdfac409	-0.12244422
61	0x3e0bbbc4	0.13645846
62	0x3e04c2b3	0.12964897
63	0x3e122f7c	0.14275926
64	0x3dac07d8	0.083999336
65	0x3a6b1744	0.00089680054
66	0xbe2c1fe5	-0.16809042
67	0xbdf4273d	-0.119215466
68	0xbe6cea75	-0.23136313
69	0xbe977837	-0.29583904
70	0xbd14e1ab	-0.036348026
71	0xbe1e4f7d	-0.1546001
72	0x3cad332d	0.021142567
73	0x3e019075	0.12652762
74	0x3bdc7797	0.0067281234
75	0x3de361a8	0.11102611
76	0x3b558ddd	0.0032585778
77	0xbc9917cf	-0.01868811
78	0x3dc6e0dd	0.09710858
79	0x3dbe8483	0.09302618
80	0x3e2c7da1	0.16844799
81	0xbe493b3c	-0.19651502
82	0x3e1d951c	0.15388912
83	0x3e3bf375	0.1835459
84	0xbc5d2430	-0.013497397
85	0xbe247c60	-0.1606307
86	0x3d91022b	0.07080492
87	0xbdac13e4	-0.08402231
88	0x3c4cb913	0.012495297
89	0x3de2cb75	0.110739626
90	0xbd83fea2	-0.06445052
91	0xbc2604d4	-0.010132987
92	0xbe110ff9	-0.1416625
93	0xbe69c9db	-0.22830908
94	0xbe4b5ecd	-0.19860382
95	0xbdf55dd8	-0.1198079

bias f4 [3]
0	0xbd54664b	-0.051855367
1	0x3d9f5115	0.07779137
2	0x3da72f33	0.081632994
